GPT(
  (transformer): ModuleDict(
    (wte): Embedding(50257, 768)
    (wpe): Embedding(1024, 768)
    (h): ModuleList(
      (0-11): 12 x Block(
        (ln_1): LayerNorm((768,), eps=1e-05, elementwise_affine=True)
        (attn): CausalSelfAttention(
          (c_attn): Linear(in_features=768, out_features=2304, bias=True)
          (c_proj): Linear(in_features=768, out_features=768, bias=True)
        )
        (ln_2): LayerNorm((768,), eps=1e-05, elementwise_affine=True)
        (mlp): MLP(
          (c_fc): Linear(in_features=768, out_features=3072, bias=True)
          (gelu): GELU(approximate='tanh')
          (c_proj): Linear(in_features=3072, out_features=768, bias=True)
        )
      )
    )
    (ln_f): LayerNorm((768,), eps=1e-05, elementwise_affine=True)
  )
  (lm_head): Linear(in_features=768, out_features=50257, bias=False)
)
Number of model parameters: 124439808
loaded 338025 tokens
1 epoch = 338025 batches
Epoch 1/100: 100%|█████████████████████████████████████████████████████████████████████████████████████████████████████████| 82/82 [02:02<00:00,  1.49s/it]
Epoch 1/100, Loss: 6.169586
Epoch 2/100: 100%|█████████████████████████████████████████████████████████████████████████████████████████████████████████| 82/82 [02:00<00:00,  1.46s/it]
…
